intro_to_ai/Example/pin-chen/HW4/HW4/Tables/DQN.pt (torch, 9559 bytes, 6 tensors)

fc1.weight f4 [32, 4]
000000 74 9b 69 3f 41 31 00 3f 58 c1 57 3f c7 fa a5 3e
       0.9125283 0.50075155 0.84279394 0.3241789
000010 64 d2 06 3f 5f 96 90 3e f0 54 ee 3e be 78 3c bc
       0.5266478 0.28239724 0.46549177 -0.011503397
000020 d7 ed 27 3e 12 5e 5a 3e cd 6e 8e be c7 23 10 3e
       0.16399322 0.21324947 -0.2781891 0.14076148
000030 ea 4b f1 3e 4e 11 a6 be 5c f0 6b 3e 14 f8 a3 be
       0.4712823 -0.32435077 0.23040909 -0.32025206
000040 09 09 75 3f dc a7 5b 3e 8d 0e 81 bf a1 0c e7 3d
       0.9571691 0.21450752 -1.0082566 0.11281706
000050 a1 aa 28 3e 86 78 06 be 87 cd 2d bf e8 ed a1 3d
       0.1647134 -0.13131914 -0.67891735 0.07906705
000060 33 22 40 be e1 1e c8 3d c0 ff 79 be 36 5e 07 be
       -0.18763046 0.09771515 -0.24413967 -0.13219532
000070 9c 94 02 3e 8d 6d 4c be c9 98 2c bf a5 d1 03 bf
       0.12752002 -0.19963665 -0.6742063 -0.5149177
000080 db e4 c9 3e bb 60 ac be 8c d8 4d 3e e5 ed 91 be
       0.39432415 -0.3366755 0.20102137 -0.28501812
000090 7c 84 5d bf bf c3 13 3f 2e c8 93 3f df f4 d2 3e
       -0.8653028 0.5772056 1.1545465 0.41202447
0000a0 42 98 a5 be dc 0c e4 3e b0 c8 69 3f a6 d2 f4 3e
       -0.32342726 0.4454106 0.9132185 0.47816962
0000b0 9e e0 77 bf f8 61 92 be d8 a4 98 3f 60 5e 82 3e
       -0.96827114 -0.2859037 1.1925306 0.25462627
0000c0 35 70 23 3f 98 2b fb be a1 f1 3b bf 6d 95 e6 be
       0.6384309 -0.49056697 -0.7341557 -0.45035878
0000d0 e6 e7 18 bf a7 7a a6 3e a4 7d 79 3f 76 33 d4 3e
       -0.5972885 0.3251545 0.9745734 0.41445512
0000e0 29 59 d2 3d 21 ce 8e 3e 6d d7 b5 3e be 06 c7 3e
       0.10270912 0.2789164 0.3551592 0.3887233
0000f0 de 8d 80 b8 4e 36 6d be e9 57 b8 3e 72 15 bd bd
       -6.1299404e-05 -0.23165247 0.3600457 -0.09232606
000100 ad 56 bc 3d b7 9c 00 bf 62 f1 b5 bf bd 40 e1 be
       0.091962196 -0.5023913 -1.4214289 -0.43994704
000110 8f 45 6a be 86 26 ed 3c 59 85 53 3e 63 a4 00 3e
       -0.22878097 0.028949033 0.20656337 0.12562709
000120 b8 68 75 be 59 b8 c4 3c 2a e1 f2 be 79 ef 93 3e
       -0.23965728 0.024013685 -0.47437412 0.2889364
000130 9b 73 ea be 83 59 ea be b9 27 bc bf 42 4d b9 be
       -0.45791325 -0.45771417 -1.4699622 -0.36191756
000140 87 01 d6 bd 92 db 2e bd d5 e2 23 3f 6c 47 77 3c
       -0.1044951 -0.042689867 0.64017993 0.015092712
000150 88 31 8a 3f 51 ab 82 ba 7c 37 db be e7 ed 08 3d
       1.0796366 -0.0009969269 -0.4281577 0.033430006
000160 fc 8c 4e 3e 21 a4 d9 be c7 41 bb be da 9e 92 bd
       0.20170969 -0.42508033 -0.36573622 -0.07159205
000170 94 f2 1b 3e 54 f1 90 bd a1 1d ce 3e e8 be 6f be
       0.15229255 -0.0707728 0.4025698 -0.23412669
000180 ef c6 db 3e 09 a9 5d 3e 13 0a a2 3f 4d 32 10 3e
       0.42925212 0.21646513 1.2659324 0.14081688
000190 59 f5 df 3e 34 47 c6 3e d8 f5 51 be 90 ab 3f 3e
       0.43741873 0.387262 -0.20503938 0.1871779
0001a0 00 7c 9d 3e be 8a de be 59 db 68 be a9 50 90 3e
       0.30758667 -0.43465227 -0.22739924 0.2818654
0001b0 c7 07 27 3e 4c 79 bb 3e c3 18 dc 3f 22 26 ac 3e
       0.1631156 0.3661598 1.7195057 0.33622843
0001c0 dc 63 12 bf 80 a6 8d bd 65 3d 47 3f ab a7 82 3c
       -0.57183623 -0.06916523 0.77828056 0.015949091
0001d0 b7 de 81 3e 46 0b bf 3e 32 dd e9 3e 7b 87 8a 3e
       0.2536523 0.37313288 0.4567657 0.27056488
0001e0 12 81 70 3d 38 17 54 3e 34 a1 b7 3e 4c 9b 69 bd
       0.05871684 0.20711982 0.35865176 -0.05703287
0001f0 42 ab bd 3e 28 c0 08 bf d8 34 6a bf ea 41 5c be
       0.37044722 -0.5341821 -0.91486883 -0.21509519

fc1.bias f4 [32]
000000 69 31 89 bd 91 42 54 be 78 89 51 3f c6 1b 65 3f
       -0.06698877 -0.20728518 0.81850386 0.89495504
000010 2c ef 7b be dd aa fe 3e 8f 20 6d 3f 37 92 e4 be
       -0.24602956 0.49739733 0.92627805 -0.44642803
000020 f5 0c 30 3f 70 6d 4f 3e d6 3f 0b be 4e 24 9b 3e
       0.6876977 0.20256591 -0.1359857 0.30301136
000030 11 dd 3e 3e 71 11 6c be fd e6 61 3f aa f9 16 3f
       0.18639018 -0.23053528 0.88243085 0.5897471
000040 99 e6 75 be e1 26 03 3f d8 7d 75 3f cb 16 9e bd
       -0.24013747 0.512312 0.9589515 -0.07719191
000050 40 5d 1f 3f 65 fc b7 bd 9d 97 2e 3f 2e 7e 5a 3f
       0.62251663 -0.08983687 0.68200094 0.85348785
000060 99 e8 d4 3e 66 a4 f1 3e 36 6c 2c 3f 0e 45 f8 bd
       0.41583708 0.4719574 0.67352617 -0.12122546
000070 33 0a 2e 3f 5e 0a 46 3f b4 bc 5b 3f a3 d4 f2 3e
       0.6798431 0.7735957 0.85834813 0.47427854

fc2.weight f4 [50, 32]
000000 c8 c3 17 bd 39 f1 ce 3d 3b 49 a5 bc e6 a1 a1 bd
       -0.037051946 0.10104603 -0.02017652 -0.07892208
000010 50 2b 84 bd e9 5c 4f bd 3b 65 91 3c 08 17 49 3d
       -0.06453574 -0.050625715 0.017748466 0.04909423
000020 1a 9d 3b be 24 08 87 3d 41 57 3c be 31 45 ca 3d
       -0.18321648 0.065933496 -0.1839266 0.098764785
000030 87 7c a4 3d 47 1d 0b be 3b 81 43 3d 5c 5a 02 be
       0.08031564 -0.13585387 0.047730666 -0.12729782
000040 98 ea 8b bd 13 f0 05 39 02 eb 2e 3d d6 77 14 be
       -0.068318546 0.00012773303 0.04270459 -0.14498839
000050 41 73 cb bc 81 6f 93 bc ba e3 da bd de c6 5d bd
       -0.02483523 -0.017997505 -0.10687967 -0.054144733
000060 a5 69 3c be dd 9d d1 bd 45 4a e6 bc b5 36 4c bc
       -0.18399675 -0.10235188 -0.028111586 -0.012464215
000070 6f 65 85 3b 16 53 05 3e 49 52 46 be 7c ee b4 3d
       0.0040709297 0.13019976 -0.19367327 0.0883455
000080 a5 ae 0f 3f 75 af 3c be ad 8b f8 bd 01 8d 96 3d
       0.5612586 -0.18426307 -0.12136016 0.07351113
000090 ef 90 b5 bd 3b 09 e7 3d a5 82 c0 bd fc 66 ee 3e
       -0.088655345 0.112810574 -0.093999185 0.46562946
0000a0 60 2d 29 bd 72 fc 3b 3f 9e b9 5f 3f 3b d4 d3 3e
       -0.04130304 0.73432076 0.87392604 0.41372856
0000b0 e5 c5 fc 3e 01 47 ab 3e 7f 2f a0 bd 58 ea e5 bc
       0.49369732 0.3345261 -0.07821559 -0.028065845
0000c0 d2 d5 23 3e 84 ab 2d 3e 7f 57 0a bd 25 c8 03 3f
       0.15999535 0.1695996 -0.03377485 0.5147727
0000d0 5c 07 27 3e 4f 86 ab 3d ae b1 ea bc 33 9e 84 be
       0.16311401 0.08375227 -0.028649177 -0.25901946
0000e0 49 43 10 3f 90 eb 35 be 20 ee 34 3e e9 20 cd 3e
       0.5635267 -0.17765641 0.17668962 0.4006417
0000f0 ea 3e 66 3a 2e 03 13 3c 1d 89 f1 3c c9 4e 6d 3e
       0.00087831786 0.008972926 0.029484326 0.23174585
000100 5e 66 e7 bd 96 be 31 3c 68 4d 01 3e ff f5 1c be
       -0.11298822 0.010848662 0.12627184 -0.15328215
000110 a3 aa 13 bb 69 26 05 3d 56 e1 96 3c 98 ab 3e bd
       -0.0022532127 0.032507334 0.018417995 -0.046550363
000120 a1 c2 0c be 3c ff 1f be 7b c7 ce bd b3 60 bf 3d
       -0.1374612 -0.15624708 -0.10096642 0.09344616
000130 e3 74 aa 3d 3c 39 0e 3e c4 34 85 bd 48 ab db 3d
       0.083230756 0.1388902 -0.06504205 0.10726029
000140 bb 2a 0f 3d ed e9 32 3d e6 98 d8 bd 08 01 b7 3d
       0.03495286 0.04368012 -0.10576038 0.089357436
000150 d0 5d 5e bd 7b 80 2c be 30 b9 17 be 4d 48 8c 3c
       -0.054288685 -0.16845886 -0.14816737 0.01712432
000160 7b 1e 31 be 23 09 21 3e cc ad a0 3d 69 99 0d 3d
       -0.17296784 0.15726142 0.07845649 0.03457013
000170 6f 32 0e be d1 cc 31 be e8 f7 e6 bd cb d1 f3 3d
       -0.13886426 -0.17363288 -0.11277753 0.11905249
000180 5b 1b fc be d5 c1 b4 3e 20 11 03 3f 12 65 db 3e
       -0.4923962 0.35304132 0.51198006 0.42850548
000190 09 21 d7 be 2d 37 5f 3e f0 25 09 3f c5 7b 06 bf
       -0.4201739 0.21798392 0.53573513 -0.5253261
0001a0 c3 ee d1 3e 7b e5 0a bf f1 c5 46 bf 19 0f 71 3c
       0.41002473 -0.5425641 -0.77645785 0.014713072
0001b0 12 e5 ea be 90 13 88 be fe 37 0f 3e 71 03 c0 3d
       -0.45877892 -0.26577425 0.13986203 0.093756564
0001c0 fa b6 20 bf 69 5f dd 3d 94 e4 aa 3e 71 a4 49 bf
       -0.627792 0.10809214 0.33377516 -0.7876654
0001d0 f0 1f 89 3e 22 f3 20 be 78 10 80 3d 75 ad e8 3e
       0.2678218 -0.15717748 0.06253141 0.45444837
0001e0 a8 de 50 be e9 71 3d 3e 67 07 db 3d 02 64 88 be
       -0.20397437 0.18500485 0.10694771 -0.266388
0001f0 56 b7 82 3e db 70 ad 3e 02 26 1c 3f c2 23 e3 3d
       0.255305 0.33875164 0.60995495 0.11090805
000200 29 b4 fa be 10 d3 a7 3d 66 35 12 3f 67 88 90 3e
       -0.48965576 0.08194554 0.5711273 0.28229067
000210 13 d7 49 be 08 89 b5 3e d6 75 cd 3e 36 3d b6 be
       -0.1971095 0.3545611 0.40128964 -0.35593575
000220 e9 94 a5 3e 92 fa 36 bf 8e 46 03 bf 2b fb 8e be
       0.32340172 -0.7147609 -0.5127953 -0.27926
000230 59 e0 1e bf 92 59 00 bf 38 09 e6 3e 35 f3 8d 3e
       -0.6206108 -0.50136673 0.44928908 0.27724615
000240 00 46 10 bf 7a 0e dc 3d df 8a e9 3e fa 70 55 bf
       -0.5635681 0.10744949 0.45613763 -0.83375514
000250 6e 9b b0 3e fb 44 98 be 74 89 81 3e b7 a0 b4 3e
       0.34493583 -0.29740128 0.2530018 0.35278866
000260 f6 4c 51 be 30 56 e6 3e f2 99 97 3e 2a e7 5e be
       -0.20439515 0.4498763 0.29609638 -0.2176787
000270 5e 40 43 3e 7f 01 2a 3e 52 4b 24 3f a6 96 0c 3e
       0.19067523 0.16602133 0.6417743 0.13729343
000280 0f 58 31 bf 1a bc 38 3e 05 fc 05 3f c1 f1 03 3f
       -0.6927499 0.18040505 0.52337676 0.5154076
000290 09 f2 f7 be d1 0b 6d 3d 5d 55 27 3f 10 94 23 bf
       -0.48426846 0.057872597 0.6536463 -0.638978
0002a0 2b b8 ae 3e 0a 47 38 bf a7 0c 82 bf 9f f8 58 be
       0.34124884 -0.71983397 -1.0160111 -0.21188591
0002b0 6b 39 33 bf 0c 0e 33 bf 6f 82 07 3e 1b 3a c3 3d
       -0.7000949 -0.6994331 0.1323335 0.09532567
0002c0 c2 b3 e9 be c4 db 42 3e 6a a5 95 3e ac d7 12 bf
       -0.45644957 0.19029146 0.29227763 -0.5736034
0002d0 b6 43 95 3e ef d2 83 be 36 d2 da 3d f1 e2 0d 3f
       0.29153222 -0.25746867 0.10684626 0.5542441
0002e0 57 3f 2c bf af 4b 4b 3e a1 3d 1a 3e 69 cc 17 bf
       -0.6728415 0.1985309 0.15062572 -0.5929628
0002f0 2b 6a 7b 3e f4 d4 df 3e bb 86 f2 3e 5c 06 a8 be
       0.24552219 0.43717158 0.47368416 -0.32817352
000300 fb 31 1a bf f2 1c 01 3e 81 5a d6 3e d7 3e cb 3e
       -0.60232514 0.12608698 0.41865924 0.3969638
000310 6b 70 a6 be 87 29 65 3e b1 21 de 3e 6f 21 17 bf
       -0.32507643 0.22379123 0.4338508 -0.5903539
000320 98 76 09 3f 4a d7 f4 be ef 3b 43 bf 45 28 c7 bd
       0.53696585 -0.47820503 -0.76263326 -0.09724478
000330 a2 06 e2 be 84 80 c2 be bd e8 84 3e f3 e5 d7 3d
       -0.44145685 -0.37988675 0.25958815 0.10541906
000340 bd fe f3 be 27 a5 a2 3e d1 81 a1 3e 0e bd 20 bf
       -0.47655287 0.31766626 0.31544355 -0.62788475
000350 3f 8e 8d 3e e6 d5 11 be 2b e9 42 3e b6 e7 c8 3e
       0.27647588 -0.14241752 0.19034259 0.3923928
000360 61 7f fc be c0 63 da 3e e9 d8 74 3e 9e ef c1 be
       -0.49315932 0.42654228 0.2391087 -0.37878126
000370 da 8a 96 3e 07 e5 b7 3e e8 ac 11 3f e0 0a bf 3d
       0.2940281 0.35916921 0.5690446 0.09328246
000380 86 b1 d0 be 54 5c 29 3e 2c b3 a1 3e bd e6 dc 3e
       -0.4076044 0.16539127 0.3158201 0.4314479
000390 d5 36 d5 be e0 97 81 3e 5c 37 0c 3f 2a f4 c2 be
       -0.41643396 0.25311184 0.5477197 -0.38076907
0003a0 38 bd ec 3e b6 78 37 bf ae 4d 18 bf cd b9 c1 bd
       0.46238112 -0.71668565 -0.5949353 -0.09459267
0003b0 72 76 1d bf d9 c8 87 be 87 41 cf 3e c5 f2 f4 3e
       -0.6150886 -0.26520422 0.4047968 0.47841468
0003c0 b4 0c 11 bf 23 a4 0d 3e da 4d 54 3e 04 b2 0e bf
       -0.5666001 0.13832144 0.20732823 -0.5574038
0003d0 5d 2c c2 3e 75 c1 81 be d5 a7 82 3e 3e e7 9c 3e
       0.37924471 -0.25342909 0.2551867 0.30645174
0003e0 6a 57 a1 be 98 f1 a9 3e ef 48 ba 3d 45 1a 7e be
       -0.31512004 0.33192134 0.09095942 -0.24814709
0003f0 52 c9 0f 3e 46 0d 00 3f d0 d6 29 3f b4 5a c3 3d
       0.14041641 0.50020254 0.663434 0.095387846

fc2.bias f4 [50]
000000 e9 3f d7 3d 9d 2b 8e 3b fe 64 58 bd 42 84 b3 3e
       0.10510237 0.004338695 -0.05283069 0.35061842
000010 e9 a0 6f 3e a0 da f2 3e 9c d6 88 3e 67 1d d2 3e
       0.23401226 0.47432423 0.26726234 0.41038057
000020 80 3d 1b be 1d 1e c7 3e 8b 92 a7 bd 1e 00 de 3d
       -0.15160179 0.38890162 -0.08182248 0.10839866
000030 b6 ff 32 3e 4b 7e 33 bd a8 5f e8 3e 81 6e c4 3d
       0.17480358 -0.043821614 0.4538548 0.095913894
000040 70 10 c5 3d 3e 5c 0c be 6b 51 59 3e 09 02 43 bc
       0.09622276 -0.13707063 0.21222465 -0.011902341
000050 f0 de 70 3d cd 1e a9 bd 5e 15 f9 3e 61 09 be bd
       0.05880636 -0.08257828 0.48649114 -0.09279133
000060 e3 ca e7 bd 2c 5c 88 3d 00 05 21 be 13 fc dd 3e
       -0.113179944 0.066582054 -0.15724564 0.4335638
000070 eb 90 b2 3d 38 3e b1 3d 1c ab e3 bd 30 87 1d 3f
       0.08719047 0.086544454 -0.11116621 0.61534405
000080 1c f2 c5 bc 58 c2 ca 3e 31 30 d3 3e fe aa 58 bd
       -0.024163298 0.39601398 0.41247705 -0.052897446
000090 8b c6 c4 bd 1d 7b b6 bb 5e 31 a1 3e 96 05 a5 3d
       -0.096081816 -0.0055688755 0.31482977 0.08057706
0000a0 84 f4 99 3e f1 8b 44 3d 63 8a 10 3e 54 7a b3 3e
       0.30069363 0.04798502 0.1411529 0.35054266
0000b0 93 ff 56 bc 0a 56 a1 bd 67 e0 58 bd 8d ef da 3e
       -0.013122457 -0.07877739 -0.05294838 0.42760888
0000c0 6b 0a c6 3c 49 ad 7d 3e
       0.02417489 0.24773134

fc3.weight f4 [2, 50]
000000 d1 6a 9f bd 47 7f 0f bf 71 73 e6 bb 4e 9f 08 3f
       -0.077840455 -0.56053585 -0.0070328047 0.5336808
000010 7f 9c e9 3e c8 77 21 3f 78 07 0c 3f 90 f1 f3 3e
       0.4562721 0.63073397 0.54698896 0.47645235
000020 87 a0 aa bd b4 18 d7 3e 16 23 18 bc 68 88 1f bf
       -0.083313994 0.42011034 -0.009285709 -0.62317514
000030 9c 3f 2c be 32 88 91 3d 93 0e fc 3e aa 9d 93 bd
       -0.1682114 0.07106055 0.4922987 -0.072078064
000040 d6 87 0c bc 5d 68 c8 be 0a 05 d9 3e 50 98 04 bf
       -0.008577308 -0.39142123 0.42386657 -0.5179491
000050 c7 1a 2f bd 63 93 00 bf 36 1d 1f 3f 50 64 f3 be
       -0.042750146 -0.50224894 0.6215395 -0.4753747
000060 42 6c 1a 3d a1 32 93 3e c9 c9 d5 3c bc 6f 17 3f
       0.0377009 0.28749564 0.026097195 0.5915487
000070 b4 83 8e bd 7c 3f 21 bf a4 29 d7 bc 47 93 01 3f
       -0.06958714 -0.62987494 -0.026264973 0.5061535
000080 6d ba 3e bf 58 3c 03 3f 8e c9 f6 3e aa 73 3b bd
       -0.74503213 0.5126395 0.4820065 -0.045764603
000090 88 f3 8d bd 0f f8 2a be f7 35 cf 3e e5 18 9b 3e
       -0.069312155 -0.1669619 0.4047086 0.3029243
0000a0 b1 ff fe 3e bb 08 84 be ea ea 1b bf 71 96 f3 3e
       0.49804452 -0.2578791 -0.60905325 0.47575715
0000b0 ca 77 85 bd a5 07 12 bf 1c ac 93 be 2b ea 15 3f
       -0.065169886 -0.57042915 -0.28842247 0.58560437
0000c0 c5 ce 20 bf e2 1c 4e 3f 8b 89 41 bd 11 b3 a6 be
       -0.62815505 0.8051282 -0.04725031 -0.32558492
0000d0 be 77 cf 3d dd 51 d9 3e a6 50 06 3f 3a 62 06 3f
       0.10130261 0.4244527 0.5246681 0.5249363
0000e0 74 22 d7 3e 16 0f 00 3f 08 64 f2 bc 4f a3 01 3f
       0.42018473 0.5002302 -0.029588714 0.50639814
0000f0 93 65 b1 3d c5 d2 61 bf d7 68 e0 be d6 32 aa bd
       0.08661952 -0.88212234 -0.43829986 -0.083104774
000100 57 03 fa 3e 36 39 7c bc 5a 50 54 3d 47 70 27 bf
       0.48830673 -0.0153944995 0.05183444 -0.65405697
000110 1e 41 fb 3e a3 ef ad be 5e 29 a1 3d 6d c5 fc be
       0.49073118 -0.3397189 0.07869218 -0.49369374
000120 7b 6d 23 3f a9 a4 82 be 16 70 8a 3d 8a ba eb 3e
       0.6383893 -0.2551625 0.0675966 0.46040756
000130 3a 6c 73 3d f6 12 16 3f 64 06 8b bd 7d 84 5a bf
       0.059429385 0.5862268 -0.06788328 -0.8535841
000140 c2 bd d2 3d b0 ef 10 3f 3b a1 04 bf 6d 87 1f 3f
       0.102901 0.56615734 -0.5180852 0.6231602
000150 ea 94 17 3f 5c d2 29 bd 85 34 86 3d 31 dc d3 be
       0.592116 -0.04146038 0.06552986 -0.4137893
000160 0e 01 a3 3e 6c c8 aa bd af 0e 05 3f 6d 5c c3 bd
       0.31836742 -0.08339009 0.5197553 -0.09539113
000170 54 14 59 bf d9 79 1e 3f 2f 13 da 3a 3c 32 14 bf
       -0.84796643 0.61904675 0.0016637797 -0.5788915
000180 f2 2c 04 bf b0 c5 19 3f c0 b4 21 bf 34 08 ef 3e
       -0.5163108 0.6006727 -0.6316643 0.46685946

fc3.bias f4 [2]
000000 5d 23 90 3e 69 9d 2c 3e
       0.2815198 0.16856922
